nn_training/nn_biases_layer_0.npy (npy, 640 bytes, 1 tensors)

array f4 [128]
000000 49 e8 50 3d 62 94 36 bd 85 47 87 3c fc 56 8a 3c
       0.051002774 -0.044575103 0.016513595 0.01688718
000010 a7 fd 25 3d a8 ef d3 3c f3 74 96 3d 22 44 81 3d
       0.040525105 0.025871113 0.07346525 0.063118234
000020 b5 c3 83 3c f0 75 8a 3c d8 98 2a 3d 71 c6 ae bc
       0.016084531 0.01690194 0.04164967 -0.021334859
000030 04 9b 38 3d 2e 9c 0f 3d 81 9b 72 bc 81 fb 42 3c
       0.04506971 0.035061054 -0.014807583 0.0119007835
000040 3c 5f 14 3c c7 90 0b 3d 8d 07 cf 3c 33 fc 3b 3d
       0.009055909 0.034073617 0.025272155 0.045894813
000050 0e 96 34 3d a1 f1 9c 3c f5 18 7d bd 8d 5c fa bb
       0.044088416 0.019158186 -0.06179138 -0.0076404274
000060 04 c9 6f 3c d0 9b bc 3d ae 6c c8 3c 84 32 7f bc
       0.014635328 0.092094064 0.024465885 -0.015576009
000070 e6 90 c6 3c b1 26 8a 3c 65 f1 f5 bc c3 89 45 3c
       0.024239015 0.016864153 -0.030022332 0.012056771
000080 e0 bb 48 37 9e 22 bf 3d 52 f3 9e bc b8 d0 34 bd
       1.1964672e-05 0.093327746 -0.019403134 -0.044144362
000090 77 22 2f 3d 11 ef 6d 3d 06 0c b7 3c 96 7d 57 3d
       0.042757478 0.05808932 0.0223446 0.052610002
0000a0 d6 da 70 3d ec a0 d1 3b 11 f5 95 bc 45 d9 46 3d
       0.05880245 0.006397357 -0.018305333 0.048547048
0000b0 ab 2d 95 3d 2b a5 da 3c e5 35 31 bc 00 14 89 3c
       0.07284101 0.026690086 -0.010816072 0.01673317
0000c0 04 09 4d 3d 8c e1 4f 3d ba c5 72 bc 75 48 09 3c
       0.050057426 0.050752208 -0.0148176495 0.0083790915
0000d0 b4 1d be 3c 67 9f 85 3d 59 dd 95 bb 6d e9 67 bd
       0.023207523 0.06524544 -0.004573506 -0.056619097
0000e0 8e 38 e6 bb 50 17 10 bc 52 2d 0f bd 0f 4e 44 3c
       -0.007025785 -0.008794621 -0.03495533 0.011981501
0000f0 5e 44 23 3d ba d7 08 bb d7 ea 65 3c 46 50 7d 3c
       0.039860122 -0.0020880536 0.014033041 0.015461033
000100 ca ac 3d 3b 5e 1d 2b 3b 4c 48 10 3d 2b 04 6e bc
       0.0028942102 0.0026110034 0.035225198 -0.014527361
000110 d1 38 81 3c fe c1 27 3d ae 7b a3 3d b3 b5 2b 3d
       0.015774162 0.04095649 0.079825744 0.04192133
000120 75 45 1c 3d 38 ac 7c bc e9 05 9d 3d 04 e4 06 3c
       0.038152177 -0.0154219195 0.07667143 0.008233074
000130 53 24 0a 3d 24 51 84 3b b0 34 d3 3c 86 20 8d 3d
       0.033726048 0.004037993 0.02578196 0.06890969
000140 95 bf 13 3c 0a 86 a5 bc 08 e5 d4 bc ba a9 b0 3c
       0.009017845 -0.020205516 -0.025988117 0.021565307
000150 9c ba d7 bc c8 50 c9 3b 87 ff 68 3d 57 c4 35 3d
       -0.0263341 0.006143663 0.056884315 0.044376697
000160 cd 4f b5 3d 7f 30 9b bd f5 0a 6c 3d 86 ae f2 bc
       0.088531114 -0.07577609 0.057627637 -0.029624235
000170 e8 e4 d9 3d 07 a5 a2 3b c0 2f 9f 3d 78 15 84 bd
       0.106393635 0.0049635204 0.077727795 -0.06449407
000180 18 96 83 3a 71 72 90 3d 5d 08 b0 bc 60 40 aa 3d
       0.0010039238 0.07053078 -0.021488363 0.0831306
000190 93 18 2e 3d 60 9e 58 3d 1b ea a7 3c 85 ae 84 bc
       0.042503905 0.052885413 0.020497372 -0.016196499
0001a0 f3 a7 20 bd bd ae b3 3c 89 00 1b 3b 84 a0 a6 3d
       -0.03922267 0.021933908 0.0023651442 0.08136085
0001b0 32 26 38 3d f5 df 2e 3d 3f 39 1d 3d c1 06 93 3c
       0.0449583 0.04269405 0.038384672 0.017947556
0001c0 45 9b 72 3c 5e 6b 67 3d fe 63 5a 3d 43 ff a6 3d
       0.014807527 0.056498878 0.053318016 0.08154156
0001d0 ae d7 c6 bc 70 d6 71 3b 9c dd 1a 3d be 01 c0 3d
       -0.024272766 0.0036901496 0.037809 0.09375332
0001e0 0d cd d5 3c 89 b2 7e 3c c1 31 1c 3c f5 02 a3 bb
       0.026098752 0.015545496 0.009533347 -0.0049747177
0001f0 42 af 0c 3d 86 d9 09 bd c6 44 07 bd 20 4a 0c bc
       0.034346826 -0.033654712 -0.03302457 -0.008562595
