nn_training/nn_weights_layer_2.npy (npy, 7296 bytes, 1 tensors)

array f4 [64, 28]
00000000: b34d 933e 81f4 44be beed 203d f05b 29be
00000010: 133f 78bd 7b36 82be 8a11 af3e a6f6 843e
00000020: 33aa 40be acd5 6d3c 139e 3fbe 1d40 ee3c
00000030: dd03 f43d c8d1 97bc d429 793e 9866 afbe
00000040: f814 2d3d f040 6fbe 876d 57bd cc74 4bbe
00000050: 3bce 99be 05d3 14be a722 bc3d d39a 993e
00000060: bac5 a3be 7305 31be 12a9 5dbe 5924 ac3b
00000070: bf3c 993b a824 133e 9e8a e9bd 7c3a 13be
00000080: f52a f53d 696c 55be 0833 b4be df9c e73d
00000090: 0f14 803e 55d7 35be 4e85 42bd 6d08 a33e
000000a0: 8fa3 0fbd f493 70bc efe5 fbbd 7907 e83d
000000b0: 5019 ed3d bf03 83be c759 183e f7c2 4b3e
000000c0: 0391 67bd 4579 173e e951 6e3e c7a7 9ebd
000000d0: 7be2 323e 659b 06be c28f c2bd 5417 333d
000000e0: e6fe 17be e5f4 15bc 60b3 12bd 0ea0 b73d
000000f0: 5994 1abe 312e 073e ff47 b43e a171 27bd
00000100: 040c c1bd 3c22 b13c 8ac8 953d 3a31 a2be
00000110: b6fe 3dbd 65dc 1bbd 0b84 263e b878 883e
00000120: 2665 813e 05aa 1abe 0197 0fbd 89d5 4b3e
00000130: 2bd0 a23e 5b54 9abd 8313 ff3d d3d9 e3bc
00000140: f6d6 5e3e faad cb3e d7da 823d 5fa6 84bd
00000150: c9f9 01be 9b1e c3bd 1bae 9d3e caad 003e
00000160: 6465 043e ffe9 3ebe 62c5 8fbe 6d46 a13e
00000170: 4dbe d43e 243b 863e 9bdc 873d 7a7d 9c3e
00000180: 6c4d 413e c24f 89be 69d9 6abe 1151 603e
00000190: f679 1f3e 3516 1e3e 65d8 14be cca9 0a3e
000001a0: 9ddf 923d e109 af3e ffe8 0ebd 507f e8bd
000001b0: feda 9dbd 1b92 47be f594 383d 6013 3cbe
000001c0: a5dd 7e3e 2cfe f53d 7282 c3bd 9b1a 153e
000001d0: 145d ccbd 078d 283e ee91 673d de82 0fbe
000001e0: b4ff ff3d 3a19 33be e8ad 493e 7909 afbd
000001f0: 41a4 523e 39dd a4be 16fc 4a3e 1587 793e
00000200: 6df1 77bd ec6b aa3e ad6a d63d 070e 2f3e
00000210: c265 7f3d a7b7 93be 376b df3d c630 843d
00000220: c607 6cbb fdd3 e5bc 1fd5 4dbe f353 433e
00000230: fdb2 573e f8b3 763e 16ca 18be 8833 5dbe
00000240: b7c1 00be dcd2 493d 7667 53bd a269 ca3e
00000250: 88b6 89be 6ac8 95be 0551 55be f5c7 14be
00000260: 3cbb 95bd c776 ae3e e753 ecbd f649 463e
00000270: ed5c d33d 68e9 02bd 8b2b 8d3e 717c 00be
00000280: a9e9 813d b215 7f3d 5375 b2bd 9e7f df3d
00000290: e5dd a03d 3505 18bd f170 5c3e 28b4 9e3d
000002a0: 4f23 5a3e 86db 12be 23ea 4e3e 4919 e63c
000002b0: a58b c5bd 74d0 e03d 9cf0 6b3e f89a 033e
000002c0: 759b fd3c 38d4 98bd 3aa0 e43d 9dc9 853e
000002d0: 7307 483e d6e6 473e 59e0 03be b957 623e
000002e0: e427 233d 0277 3bbd 5610 13be fc33 153e
000002f0: cb4d 1fbe 6513 583d 3cdd 243e 9306 0e3e
00000300: 210c 85be eff1 2e3e b9aa 05bd b412 7fbe
00000310: 466d e8bd 3fd4 a53e 22e8 21be 7af6 183e
00000320: 0385 1d3e 4483 c9bd 2d89 5d3c 9af0 693d
00000330: 9875 1bbd c639 6abe 606f f13c 376e 693e
00000340: a989 3abe 953c 8f3e ac8a ae3c 0027 debd
00000350: f97f e4bc c494 b23d 03a5 55be 80b8 3d3e
00000360: f5a9 41be 9022 293e a7f6 2b3e 7ef7 aabd
00000370: 2612 d83d b8c6 8abe b65e ba3d 2eb8 953e
00000380: 7ea5 bf3e 090e 1b3d c42c a9be 45e3 993c
00000390: ecd3 bebe 9c40 30be d5d1 08be 15fd a93e
000003a0: 7e00 e33d 7bab b6be 0136 19bd 0362 0abe
000003b0: dfe7 27be a342 4d3e 0fc8 7f3e 47ff 293e
000003c0: 816f 3a3e cbe1 0e3e 0522 01bb 2e4d 1bbe
000003d0: b94f e5be 3c6e a83e 2e07 42bd b99e 99be
000003e0: d7d0 d23e e159 833d 1f19 05be cabf 90bd
000003f0: 2c49 a6bd 4a0c 90be 93f5 75be f741 84be
0.28770217 -0.19233896 0.03928923 -0.16538978 -0.060607027 -0.2543219 0.3419307 0.25969428
-0.18814926 0.014516275 -0.18712644 0.029083306 0.11914799 -0.018532649 0.24332362 -0.3425796
0.042256325 -0.23364615 -0.052594688 -0.19868773 -0.30040154 -0.14533623 0.09186297 0.30000934
-0.3198679 -0.17287235 -0.21646526 0.0052533564 0.004676431 0.14369452 -0.11403392 -0.14377779
0.11971084 -0.20842136 -0.35195184 0.11309218 0.25015303 -0.17757924 -0.04749041 0.31842366
-0.03506809 -0.014683712 -0.12299716 0.1132955 0.115770936 -0.25588796 0.14877997 0.19898592
-0.05653478 0.14792354 0.23273434 -0.07746845 0.17469208 -0.13145216 -0.09500076 0.04372342
-0.1484333 -0.009152626 -0.035815597 0.08966075 -0.15095653 0.13201214 0.3521118 -0.04087985
-0.0942612 0.02162277 0.073136404 -0.31678182 -0.04638549 -0.03805198 0.16261308 0.266546
0.25272483 -0.1510392 -0.035056118 0.19905676 0.31799445 -0.07535621 0.124548934 -0.027813828
0.21761689 0.3978117 0.06389397 -0.06477045 -0.12692942 -0.09527322 0.30796894 0.12566295
0.12929302 -0.1864395 -0.2808028 0.31499043 0.41551438 0.26216996 0.06633874 0.3056448
0.1887719 -0.26818663 -0.22934498 0.21905924 0.15573868 0.15438159 -0.14535673 0.13541335
0.07171557 0.34187225 -0.03489017 -0.11352408 -0.07707785 -0.19489329 0.04506393 -0.18366766
0.24889238 0.1201137 -0.09546365 0.1456093 -0.09978691 0.16460048 0.056535654 -0.14014766
0.124999434 -0.17490092 0.19695246 -0.08546729 0.2057047 -0.3220003 0.19822726 0.24367936
-0.060532976 0.33285463 0.104695655 0.17095195 0.062352903 -0.28851053 0.109091215 0.06454615
-0.0036015376 -0.028055185 -0.2010083 0.19074993 0.21064372 0.2409209 -0.1492084 -0.21601689
-0.12573896 0.049273357 -0.05161234 0.39533716 -0.26897073 -0.29254466 -0.20831688 -0.14529403
-0.07311103 0.34074995 -0.115394406 0.19364151 0.103204586 -0.031960875 0.27572283 -0.1254747
0.06343395 0.06227655 -0.08713784 0.10913013 0.07854823 -0.03711434 0.21527459 0.07749206
0.21302532 -0.14341554 0.20206504 0.028088229 -0.09645776 0.10977259 0.23041004 0.12852085
0.030957917 -0.074623525 0.11163373 0.2613038 0.19534092 0.1952165 -0.1287855 0.22103776
0.039832965 -0.04576779 -0.143617 0.14570612 -0.1555702 0.05275287 0.16100019 0.13869695
-0.25985816 0.17084478 -0.032633517 -0.24909478 -0.11348967 0.32388493 -0.15811208 0.14937773
0.15382771 -0.0983949 0.013521475 0.05711422 -0.037953943 -0.22873601 0.029472053 0.2279595
-0.18216576 0.27975908 0.021306358 -0.108472824 -0.027893053 0.08719781 -0.20863728 0.18527412
-0.1891249 0.16517091 0.16793309 -0.08347987 0.105503365 -0.27104735 0.09100096 0.2924208
0.37430948 0.03785518 -0.33041966 0.018785128 -0.3727106 -0.17212147 -0.13361295 0.332009
0.11084078 -0.35677704 -0.037405018 -0.13513951 -0.16397046 0.20044951 0.2497866 0.16601287
0.18206598 0.1395332 -0.0019704115 -0.1516616 -0.44787386 0.32896602 -0.04737013 -0.30003908
0.41174957 0.064136274 -0.12997864 -0.07067831 -0.08119425 -0.28134376 -0.2401946 -0.25831577
