nn_training/nn_weights_layer_0.npy (npy, 401536 bytes, 1 tensors)

array f4 [784, 128]
0	0x3d49a3ce	0.049228482
1	0xbd0aeda0	-0.033918023
2	0x3d6dd52a	0.058064617
3	0x3d32a960	0.04361856
4	0xbd33eea1	-0.043928746
5	0xbd516ede	-0.05113112
6	0x3d370fba	0.044692732
7	0xbd2cd4bc	-0.042195067
8	0xbc1870a0	-0.009304196
9	0x3d0fb858	0.035087913
10	0x3ce5cd08	0.028051868
11	0xbd1122e9	-0.035433684
12	0xbd55198a	-0.05202631
13	0x3d71256a	0.05887357
14	0x3d794b86	0.06086304
15	0x3d0d4e8c	0.034498736
16	0xbca22e38	-0.01979743
17	0xbd5d862c	-0.054083034
18	0x3d3c7366	0.04600849
19	0xbc537d40	-0.01290828
20	0xbd71c963	-0.059029948
21	0x3cdee2d4	0.02720777
22	0x3d61da4e	0.055139832
23	0x3d310716	0.04321965
24	0xbd39c3b7	-0.045352664
25	0xbc08e010	-0.008354202
26	0xbcd1a9e0	-0.025593698
27	0xbd806f26	-0.062712
28	0x3cf26b38	0.029592142
29	0x3c8ac1dc	0.016938142
30	0xbd34d27d	-0.04414605
31	0xbda32606	-0.07966237
32	0x3cc58fd0	0.024116427
33	0xbd465ee3	-0.048430335
34	0xbd419d46	-0.04726913
35	0xbd9901cd	-0.074710466
36	0xbd6c5bb2	-0.057704635
37	0xbd72473b	-0.059149962
38	0x3d1c1c24	0.038112774
39	0xbda2d5ea	-0.07950957
40	0x3c9741c4	0.018463977
41	0x3c88cf9c	0.016700558
42	0x3cdb3d20	0.026762545
43	0xbd1387b9	-0.036018107
44	0xbd5c47e6	-0.053779505
45	0x3d83b64d	0.064312555
46	0x3d301492	0.042988367
47	0x3d68bab2	0.05681867
48	0xbd3fce8f	-0.04682785
49	0xbcb78ab4	-0.022405006
50	0x3d9abb57	0.075552635
51	0xbd52ff30	-0.051512897
52	0x3d927ac3	0.07152321
53	0x3d1c05c0	0.03809142
54	0xbcc4ed82	-0.024039034
55	0x3d2cb50a	0.04216484
56	0xbc2a0670	-0.010377511
57	0x3d4bb6ae	0.049734764
58	0x3d7e4e4a	0.06208638
59	0x3cb5f458	0.022211239
60	0x3d7e64ce	0.062107854
61	0x3c4dd2d0	0.012562469
62	0x3d132388	0.035922557
63	0x3caa03d8	0.020753786
64	0x3ba6d620	0.0050914437
65	0xbce42d9e	-0.027853783
66	0xbc711308	-0.01471401
67	0xbcafa990	-0.021443158
68	0x3cbaac3c	0.022787206
69	0xbb599d60	-0.0033205375
70	0x3c4fdc30	0.012686774
71	0xbc8d6bd8	-0.017263338
72	0x3d17251c	0.036900625
73	0xbda4e16a	-0.08050807
74	0x3ce984dc	0.028505735
75	0xbd0a181a	-0.03371439
76	0xbd0442db	-0.03229032
77	0x3ca3c6f0	0.019992322
78	0x3c809d84	0.01570011
79	0xbda1f25a	-0.07907553
80	0x3cf8c94c	0.030369423
81	0x3c9aac78	0.018881068
82	0x3cee73d8	0.029107973
83	0xbca4612c	-0.020065866
84	0xbd1dc2ce	-0.03851586
85	0xbd1d25c1	-0.038366083
86	0xbd8ef8a6	-0.0698102
87	0xbd890b91	-0.06691659
88	0x3d97bfd3	0.074096344
89	0x3c040128	0.008056916
90	0xbce57e7a	-0.02801441
91	0x3d28daa2	0.04122413
92	0xbc8fe018	-0.01756291
93	0x3c0f12d8	0.00873252
94	0xbd21deea	-0.039519228
95	0xb9d45e00	-0.00040505826
96	0xbd08ba02	-0.033380516
97	0xbd69fcce	-0.05712586
98	0x3d0614fa	0.03273485
99	0x3cbcb874	0.023037173
100	0xbbb3ec80	-0.0054908395
101	0x3d434f9e	0.04768335
102	0xbb908d00	-0.0044113398
103	0x3d869b17	0.0657255
104	0xbd9be434	-0.07611886
105	0xbd522810	-0.051307738
106	0xbcd023fa	-0.02540778
107	0x3d3a5f4a	0.04550103
108	0x3d3b7d22	0.045773633
109	0x3d90da1b	0.0707285
110	0xbba3d220	-0.004999414
111	0x3bc868a0	0.006115988
112	0xbc41d6b8	-0.011830978
113	0x3bcdfdf0	0.006286375
114	0x3d7e44ee	0.062077455
115	0xbd9ba2fd	-0.07599447
116	0x3d1eb61a	0.038747884
117	0xbd97173e	-0.0737748
118	0x3ca69358	0.02033393
119	0x3a611280	0.00085858256
120	0x3adc7180	0.0016818494
121	0x3d1f580a	0.03890232
122	0xbd77b9c4	-0.060479894
123	0xbd072957	-0.03299841
124	0xbda2415d	-0.07922623
125	0xbd8a6ba6	-0.067588136
126	0xbd715285	-0.058916587
127	0x3d97473d	0.073866345
128	0x3acd6680	0.0015670806
129	0x3d79cfc6	0.060989164
130	0xbd934248	-0.071903765
131	0x3d95ea4b	0.073200785
132	0xbcd4ab8a	-0.025960702
133	0x3d650d1e	0.055920713
134	0x3cc3d9f8	0.023907647
135	0x3bd05920	0.006358281
136	0xbd2a2fe3	-0.041549575
137	0x3d878ae1	0.06618286
138	0x3c8123d4	0.015764154
139	0x3d5bb312	0.05363757
140	0xbd979511	-0.07401479
141	0xbd53eb34	-0.05173798
142	0x3d096458	0.03354296
143	0x3c6bdda8	0.014396109
144	0xbd719de4	-0.058988467
145	0xbd7e9bbc	-0.06216024
146	0xbd69776c	-0.056998655
147	0x3d8bb7c1	0.06822158
148	0x3d96fced	0.073724605
149	0x3d641cb2	0.05569143
150	0xbd97b528	-0.074076
151	0xbd9e1bfd	-0.07720182
152	0xbd4c22fb	-0.049838047
153	0x3d5ba3fe	0.053623192
154	0xbd026fa3	-0.031844746
155	0x3d8660fd	0.06561468
156	0x3cdfb774	0.027309157
157	0x3d015be2	0.031581767
158	0xbd51d0f4	-0.051224664
159	0x3d6ba1f2	0.05752749
160	0xbd9c60cc	-0.0763565
161	0x3c6b06a0	0.014344841
162	0xbd9a4cf5	-0.0753421
163	0x3da095c1	0.07841063
164	0x3d7cfdae	0.061765365
165	0xbc4ef778	-0.012632243
166	0xbd799576	-0.060933553
167	0x3d51b2ce	0.051195912
168	0xbcdf1758	-0.02723281
169	0x3a1a9a00	0.00058975816
170	0xbce29090	-0.027656823
171	0x3c2eae08	0.0106616095
172	0x3d7cc6d2	0.061713047
173	0x3cf89704	0.030345447
174	0x3d8d2e97	0.06893652
175	0x3cd31d7c	0.025770895
176	0x3d9bb7ad	0.07603393
177	0xbc92268c	-0.017840646
178	0x3d33c5ee	0.043889932
179	0x3c915854	0.017742313
180	0xbd64d7d5	-0.055869896
181	0xbd6eb3ea	-0.05827705
182	0xbc838078	-0.01605247
183	0x3d910015	0.07080094
184	0x3d5e6e32	0.05430431
185	0xbc07c7a8	-0.008287348
186	0xbd02426b	-0.031801622
187	0xbd164381	-0.03668547
188	0xbc3efe40	-0.011657298
189	0x3d57b7ea	0.05266563
190	0xbbaaf510	-0.005217202
191	0x3d67c6c2	0.056586035
192	0xbd9072d9	-0.070531555
193	0xbc078348	-0.008271046
194	0x3d09f1b8	0.033677787
195	0x3cddedc0	0.027090907
196	0xbbd758d0	-0.0065718666
197	0xbd997997	-0.074938945
198	0xbd5dc463	-0.054142367
199	0xbcc013fc	-0.02344703
200	0x3d99f5b5	0.07517568
201	0x3d641712	0.055686064
202	0x3d09dfca	0.033660688
203	0xbd7bd21a	-0.061479665
204	0xbcd8c668	-0.026461795
205	0xbd92b941	-0.07164241
206	0xbd0e7980	-0.03478384
207	0xbd6ce7ea	-0.057838358
208	0x3d93ef89	0.07223422
209	0x3c38f1e0	0.011288136
210	0xbd6f8793	-0.058478903
211	0x3d4d72c6	0.050158285
212	0x3d913bf1	0.07091511
213	0x3d2b2a84	0.041788593
214	0x3d4d7ace	0.050165944
215	0x3d286c86	0.04111912
216	0xbd203297	-0.039110746
217	0xbd98798e	-0.0744506
218	0x3bc7a810	0.0060930327
219	0x3cfc7c3c	0.030820958
220	0x3d8d776b	0.06907543
221	0xbc83564c	-0.01603236
222	0x3d794542	0.060857065
223	0xbd1fcc35	-0.039013106
224	0x3ce1775c	0.027522735
225	0x3d9738cd	0.07383881
226	0xbb7c1a20	-0.003846772
227	0x3c8b0fdc	0.016975336
228	0xbd3913de	-0.045184962
229	0x3da395ab	0.07987531
230	0xbd939268	-0.07205659
231	0xbd250dda	-0.040296413
232	0x3d16d060	0.036819816
233	0x3ca5df90	0.020248204
234	0xbd826bbe	-0.063682064
235	0x3d0944f8	0.03351304
236	0x3d2d045e	0.042240493
237	0x3d224bee	0.039623193
238	0x3ce37274	0.027764536
239	0x3ba68270	0.0050814673
240	0xbd843f3f	-0.06457376
241	0x3d05828e	0.03259521
242	0x3d390666	0.045172118
243	0xbca192d0	-0.019723326
244	0x3d7d088e	0.061775737
245	0x3c21dd48	0.009879418
246	0x3d737406	0.05943682
247	0xbd8551b6	-0.06509726
248	0xbc6f4340	-0.014603436
249	0xbd9ea89a	-0.07747002
250	0x3d7fb74e	0.062430672
251	0x3c93d8b0	0.01804766
252	0xbc0c7dc8	-0.00857491
253	0x3d9b56e3	0.07584932
254	0x3d8c5ce7	0.06853657
255	0xbd947ae9	-0.07250006
