nn_training/nn_weights_layer_1.npy (npy, 32896 bytes, 1 tensors)

array f4 [128, 64]
00000000: 36c2 ec3d a527 6ebe 018f 443e 509f a2be
00000010: 1a23 b9bd 2319 903e ff8c 213e bac3 aabd
00000020: c9e7 c53d cf7a 04be 111e 453e ad69 41be
00000030: 93c5 063e 50ef fa3d d866 f93d e24d 193e
00000040: 0164 ce3e 5ff2 063d 27a1 883c 8aa6 fc3d
00000050: 23e4 023e b09f a13c 130e 92be b88a 8dbc
00000060: b41a 933d 77e9 83bd caec 6b3e 01d5 45be
00000070: 1225 313e 6539 94be 6c0e ee3d 5ccd f23c
00000080: 9014 bd3c 5c84 5b3e b700 283e 629a 783d
00000090: c2e4 1d3d d9d4 dabd 8d9e 5f3d 05c8 6c3c
000000a0: b5ba 31be a6bd 073e 144a 29be de23 9b3e
000000b0: 2b5b 833e 8ec2 523e 5a1c 2a3e 2342 433c
000000c0: 0c46 7abe 5e64 e4bd e4fc cabd 4954 6fbe
000000d0: a6bb 3bbc 1dac e43d f22c 96be 8ff5 88bd
000000e0: 7eda e33b c970 70be 2030 393d d0d6 bfbb
000000f0: bf98 12be 125f e63d 5e14 16be aed5 b03d
00000100: fd7f a1be f8e1 2a3e 7a9f 1fbe 5694 1e3d
00000110: 4d49 8d3d 3c4f 3d3e 40c4 ae3d 3a29 45bd
00000120: 77ff 423e b401 503d 2e0b 653e a8ab dd3d
00000130: f7c7 f53d 9f35 563e d27b b3bd 3998 a6bb
00000140: 9e6c babc 306d a03d b808 15be 8456 00be
00000150: 5091 35be 9a58 533e bee6 083e 980a efbd
00000160: 4432 21be fd74 123d 99a6 e2bd 969b ce3c
00000170: 8ef8 03be a354 3a3e 05f9 e4bd 3171 6abd
00000180: 7b2b 2c3e df29 cfba 341f d73d 8984 183d
00000190: 4ce4 2fbe 4abd a33d cfb9 b93d 0326 67be
000001a0: c263 aabc 6795 e3bd ed1a f5bd 007a 7a3e
000001b0: e758 1dbe 3277 5e3e c56d d63b 7a15 2ebe
000001c0: f8c4 60bd a1dd f03c 2e50 8cbd 466a 053d
000001d0: b4c1 85bc 4c31 28be 7905 4d3e bf5b f83d
000001e0: d9ce 01bc c252 9f3d e4f5 28be df16 91bd
000001f0: 8a92 f03a 037c ffbd 83ff bf3d faf4 e83d
00000200: 56de 85ba da9b a7bd 505b a33c 554f 22be
00000210: 3421 4e3e 6bff 20be 9c2e 66bd e64f 47bc
00000220: a790 babe 0c6f dabd 3beb dfbd f0be edbd
00000230: 1488 a23e ea58 c2bc 1de9 80be a0d5 05be
00000240: a108 463e 5cef 653e aea8 013d e800 dabd
00000250: e5aa 353e 4c89 abbc 8038 003c ec7f 77be
00000260: 9a45 afbd e090 c9bc dc30 3fbe 6217 6cbc
00000270: 3a89 3fbd abae 583e ace8 063e 071a 1c3e
00000280: 50ed 923e 9914 3a3e 1d5d 93bd 9807 c8bd
00000290: 7da5 263d aba6 a1bb e434 bfbd a964 53bd
000002a0: d91a 78bd 2ea3 863d 3502 13be 6246 693c
000002b0: 68dd 9c3d 62b8 623d 6392 e93c af3f e03d
000002c0: 9b94 763d 6643 883e b25d 18be 328a ff3d
000002d0: dd2a fabd ef92 52be 0543 453e 390e 0c3e
000002e0: 31f7 a8bd 57d0 3cbd ccb1 26be b18c cc3b
000002f0: 2e47 cd3c d8e5 00be c54e 563e db79 2abe
00000300: b0c5 373e abad c73d 30e3 ccbd c4d9 1cbc
00000310: 163a ffbd 383a a6bd 4772 06be 97d8 13be
00000320: 8fa9 18bc e6bf 08bd c7b7 21bd 685b b93d
00000330: 69d0 b0bd e26a 023e 5cf4 363e 0603 913d
00000340: 8841 3b3c 7145 02be b7b6 bdbc 8397 cc3d
00000350: a259 91bd 91e3 09bd 14b4 1d3e a107 163d
00000360: bbc9 1a3e 6941 373e d5e4 383e 41dd 18be
00000370: d790 e83a 92ac eebd 4d19 343e c066 ceb9
00000380: d1e4 a43d c2ea 12bb 8b6d 553e 3836 c7bd
00000390: 1d4c 1fbe 3b68 593c b040 473e 2b3f 64bc
000003a0: 0e6b e13d 76c7 09be 83d5 ecbd d09f 3dbd
000003b0: bd68 ac3d 54f1 ef3d 9d4f 8abd c6d9 88bd
000003c0: ef67 083e a74c 13be 8a20 4b3d 6f48 8a3d
000003d0: 980c 5cbd bb5e 7cbc fc02 90bd 9674 25bc
000003e0: 1dc6 61bd 4ffa e33d b288 e1bd 43ec fa3d
000003f0: 484c 1a3e bb36 18bd 86e7 423e 5ff6 30bd
0.1156048 -0.2325731 0.19195177 -0.3176217 -0.09039898 0.28144178 0.15776442 -0.08338113
0.0966335 -0.12937473 0.1924975 -0.18887968 0.13161306 0.122526765 0.12177819 0.14971116
0.40310672 0.032945987 0.016678406 0.12336452 0.1278234 0.019729465 -0.28526363 -0.01727806
0.071828276 -0.06441014 0.23039547 -0.19319536 0.17299297 -0.2895004 0.116238445 0.029638939
0.023081094 0.2143721 0.16406523 0.060694106 0.03854824 -0.10685129 0.054594565 0.014451985
-0.1735638 0.13255939 -0.16532165 0.30300802 0.25655493 0.20582029 0.16612378 0.011917624
-0.24440783 -0.11151956 -0.09911516 -0.23371996 -0.011458313 0.111656405 -0.29331166 -0.066874616
0.0069535365 -0.23480524 0.04521191 -0.005854465 -0.1431608 0.11248602 -0.14656207 0.08634506
-0.3154296 0.16687763 -0.15588179 0.038715683 0.06898747 0.18487257 0.085335255 -0.04813502
0.19042765 0.050782874 0.22367546 0.108237565 0.12001031 0.20918892 -0.08763851 -0.0050840643
-0.02275687 0.07833326 -0.14554107 -0.12533003 -0.17731214 0.20639268 0.13369271 -0.116719425
-0.15741831 0.0357561 -0.11066932 0.025220674 -0.12887785 0.18196349 -0.11180309 -0.057236854
0.16813461 -0.0015805325 0.105039984 0.03723577 -0.17176932 0.079950884 0.09068643 -0.22573094
-0.020799521 -0.111124806 -0.11968026 0.24460602 -0.15365945 0.21725157 0.0065438473 -0.1700038
-0.054875344 0.029402556 -0.068512306 0.032572053 -0.016327716 -0.16425055 0.20021619 0.12126874
-0.0079228515 0.07779457 -0.1650005 -0.070844404 0.0018354219 -0.12474825 0.09374907 0.113748506
-0.0010213356 -0.08184023 0.019941002 -0.15850575 0.20129853 -0.15722434 -0.056196794 -0.012165045
-0.36438486 -0.10665712 -0.109335385 -0.11608684 0.31744444 -0.023724038 -0.2517785 -0.13069773
0.19339229 0.2245459 0.031655006 -0.10644704 0.17740972 -0.020939492 0.007825971 -0.24169892
-0.08558197 -0.024605215 -0.18670982 -0.014409872 -0.04676173 0.2116038 0.13174695 0.15244304
0.2869668 0.1817192 -0.07195494 -0.097670734 0.040685166 -0.0049331984 -0.0933626 -0.05160967
-0.06057248 0.06574093 -0.1435631 0.014237972 0.076594174 0.055351622 0.028512185 0.10949647
0.060200315 0.2661392 -0.14879492 0.124775305 -0.12215207 -0.20563863 0.19263847 0.136773
-0.08250273 -0.046097126 -0.16278762 0.0062423577 0.025058355 -0.12587678 0.20928486 -0.16648047
0.17946506 0.097499214 -0.1000427 -0.009573404 -0.12462251 -0.08116573 -0.13129531 -0.14438091
-0.00931777 -0.033386134 -0.039481904 0.090506375 -0.08633501 0.12736085 0.17866653 0.07080655
0.011429198 -0.12721802 -0.023158414 0.09989836 -0.07097174 -0.03366429 0.15400726 0.03662837
0.15116017 0.17896046 0.18056042 -0.14928152 0.0017743361 -0.11654009 0.17587776 -0.00039367937
0.08051456 -0.0022417759 0.20842569 -0.09727138 -0.15556379 0.013269479 0.1945827 -0.013931076
0.11006747 -0.13454995 -0.11564162 -0.046294987 0.08418415 0.117159516 -0.06753466 -0.06682162
0.13320898 -0.1438471 0.04959158 0.06752097 -0.053722948 -0.015403445 -0.07031819 -0.010098597
-0.055120576 0.11131727 -0.11012401 0.122520946 0.15068161 -0.03716157 0.19033632 -0.043203708
