nn_training/nn_weights_layer_3.npy (npy, 1248 bytes, 1 tensors)

array f4 [28, 10]
0	0xbf02a1e4	-0.51028275
1	0x3eb176e7	0.34661028
2	0xbea1f75f	-0.31634042
3	0xbe5083d1	-0.20362784
4	0x3ec411b0	0.38294744
5	0x3ca2c86c	0.01987096
6	0x3d9a72fe	0.07541464
7	0xbe70d647	-0.2351924
8	0xbe34da2f	-0.17661355
9	0x3ec9cadd	0.39412585
10	0xbe3c762c	-0.18404454
11	0x3e1b210d	0.15149327
12	0xbe874731	-0.26421502
13	0x3ea60920	0.32428837
14	0xbe3a753c	-0.18208784
15	0xbec450b8	-0.38342834
16	0xbea9938b	-0.3312038
17	0x3dee7c7e	0.11644839
18	0xbdce87bb	-0.10084482
19	0x3ee76a01	0.45198062
20	0xbe6689b2	-0.22513464
21	0xbebeafc3	-0.3724347
22	0x3eb267f9	0.3484495
23	0xbd6ff5d9	-0.058584068
24	0xbf0201bc	-0.50783896
25	0xbec6b5be	-0.38810533
26	0x3e7cc284	0.24683577
27	0x3eb1d9c6	0.3473646
28	0x3de7c5f9	0.11317057
29	0x3dbc6de8	0.092006505
30	0x3e746bf8	0.23869312
31	0xbea34f0c	-0.31896245
32	0x3d3f79b7	0.046746936
33	0xbdeb1d6d	-0.11480222
34	0xbe38774f	-0.18014263
35	0x3ec8aad5	0.39192834
36	0xbec78999	-0.38972166
37	0xbecfafcb	-0.40563807
38	0x3e2cae43	0.1686335
39	0xbe508dea	-0.20366636
40	0xbe383d21	-0.17992069
41	0xbe5a14fe	-0.2129707
42	0xbed418f2	-0.41425282
43	0x3eeba3f0	0.46023512
44	0xbe9fbad8	-0.31197238
45	0xbedd42f1	-0.43215135
46	0x3de07e51	0.10961593
47	0xbe090aa9	-0.13382973
48	0x3ecb3a20	0.39692783
49	0xbf03bc6d	-0.5145939
50	0xbd195531	-0.03743476
51	0x3e4dda8d	0.20102902
52	0xbe8efc4c	-0.27926862
53	0xbd244a1e	-0.040109746
54	0x3ea841f3	0.32862815
55	0xbd7fbb9a	-0.06243477
56	0x3e003c3e	0.1252298
57	0xbdb275bc	-0.08713862
58	0x3e8beb87	0.2732813
59	0xbece9cd5	-0.40354028
60	0xbf058f4d	-0.52171785
61	0xbe91aeaa	-0.2845357
62	0xbcd3e48a	-0.025865812
63	0xbe2693b2	-0.16267279
64	0x3e2926a8	0.16518652
65	0xbca53549	-0.02016701
66	0xbf0da888	-0.55335283
67	0x3eb94b95	0.36190477
68	0x3ea01449	0.31265476
69	0x3ed6ca84	0.41951382
70	0x3eeacddd	0.45860186
71	0xbe8aac6f	-0.2708468
72	0xbe81bc96	-0.25339192
73	0xbe1e80b4	-0.15478784
74	0x3eee5ce6	0.4655525
75	0xbec97c7a	-0.3935278
76	0xbec33e7d	-0.38133612
77	0xbec0f82b	-0.37689337
78	0xbd0b33cc	-0.033984944
79	0x3eca7d60	0.3954878
80	0x3e4253e0	0.18977308
81	0xbe840a79	-0.2578924
82	0x3ed2d46c	0.4117769
83	0x3ecaa6bd	0.39580336
84	0x3e39828e	0.18116209
85	0x3e4feefb	0.20306008
86	0x3eb9cdfd	0.3628997
87	0xbef85b4c	-0.48507154
88	0xbdceb95e	-0.1009395
89	0xbea35a70	-0.31904936
90	0x3ee8ce37	0.4546983
91	0xbee9d1e6	-0.45667952
92	0xbe24b670	-0.1608522
93	0xbe4f369a	-0.20235673
94	0xbe54e9da	-0.20792332
95	0x3e44e19a	0.19226685
96	0x3d28247e	0.041050427
97	0x3ece2140	0.40259743
98	0xbe61113b	-0.21979229
99	0x3e6da4da	0.23207417
100	0xbe2955ef	-0.16536687
101	0xbea29b6a	-0.31759197
102	0xbde866a8	-0.11347705
103	0xbe006889	-0.12539877
104	0xbeec3dc2	-0.46140867
105	0x3cfddfb2	0.030990455
106	0x3ea43bd0	0.32076883
107	0xbe80eefe	-0.25182337
108	0x3e98d63f	0.29850957
109	0xbecca35a	-0.39968377
110	0xbe21faab	-0.15818278
111	0xbee7d108	-0.45276666
112	0x3d057ed1	0.032591645
113	0x3ee9b9a6	0.4564945
114	0xbe29e79f	-0.16592263
115	0xbc79a5e6	-0.015237307
116	0x3b5f8a60	0.0034109578
117	0xbebfc141	-0.3745213
118	0xbe963f0c	-0.29344976
119	0xbe1f40c4	-0.1555205
120	0x3e86eb61	0.26351455
121	0xbe86e9a8	-0.2635014
122	0xbb37ed1c	-0.0028064912
123	0xbe98b03f	-0.29821965
124	0x3e0e892b	0.13919513
125	0xbe77b4fa	-0.24190131
126	0x3f041c86	0.51606023
127	0x3e562fce	0.20916674
128	0x3e96ec0e	0.2947697
129	0xbe9e9b5c	-0.30977905
130	0x3d9e8ed4	0.07742086
131	0x3ecd84eb	0.4014047
132	0x3e959d56	0.292216
133	0x3eb6ff80	0.35741806
134	0x3e5992f2	0.21247461
135	0xbd941de0	-0.07232261
136	0xbed61368	-0.4181168
137	0xbde8d465	-0.11368636
138	0x3ecc8687	0.39946386
139	0x3e45e0f2	0.19324091
140	0xbd812610	-0.06306088
141	0x3e7a4ace	0.24442598
142	0x3dd39dd9	0.103328414
143	0xbf06025b	-0.52347344
144	0x3ee8c631	0.45463708
145	0xbe6727c1	-0.22573759
146	0xbbc5693c	-0.006024508
147	0x3eecf8f8	0.46283698
148	0x3e8ca276	0.27467698
149	0xbf1180e5	-0.568373
150	0x3e63b3de	0.22236583
151	0xbbada1c4	-0.005298825
152	0xbecc6c48	-0.39926362
153	0x3e8124d5	0.25223413
154	0xbe9e4c6a	-0.30917674
155	0x3e4fcd9f	0.20293282
156	0x3e2071a0	0.15668344
157	0xbeb4e539	-0.35331133
158	0x3eaada77	0.333698
159	0xbd85472f	-0.06507718
160	0xbe2d2c5a	-0.1691145
161	0x3efb3f64	0.490718
162	0x3b872049	0.0041237217
163	0x3e354f0f	0.1770594
164	0x3e123b5d	0.14280458
165	0x3da78a2b	0.0818065
166	0x3c00879e	0.007844834
167	0xbe1c8cf0	-0.15288138
168	0xbe40ce97	-0.18828808
169	0xbe9ed845	-0.31024376
170	0x3ebf600e	0.3737797
171	0x3ee8269c	0.45341957
172	0xbc9a081e	-0.018802699
173	0x3d73ddea	0.059537806
174	0x3de14ef4	0.11001387
175	0x3e4bf963	0.19919352
176	0xbe80a62e	-0.25126785
177	0x3e3d1cf4	0.18468076
178	0xbe1d16db	-0.1534075
179	0xbeea00f0	-0.4570384
180	0xbe7df143	-0.24799065
181	0x3d0fe367	0.035128977
182	0xbe6d9377	-0.23200785
183	0xbe1020a2	-0.14074948
184	0xbe8f1521	-0.27945808
185	0x3ea6620e	0.32496685
186	0x3dba22e0	0.09088683
187	0xbf1f07ca	-0.6212126
188	0x3e7c14cb	0.24617307
189	0x3e1075d5	0.1410745
190	0xbe396e72	-0.18108538
191	0x3e328b83	0.17436032
192	0xbeb08b39	-0.34481218
193	0x3e4750f3	0.19464473
194	0xbed593f3	-0.4171444
195	0xbe88bb94	-0.2670561
196	0xbd2245f8	-0.03961751
197	0xbdb6f39a	-0.08933182
198	0xbe0e07ae	-0.13870117
199	0xbdff4851	-0.12464965
200	0x3e831f21	0.25609687
201	0x3e14beff	0.14525984
202	0xbe0c9bed	-0.13731356
203	0xbeb45b3b	-0.35225853
204	0xbec6fbe1	-0.38864043
205	0xbec585a3	-0.3857852
206	0x3e6080e6	0.21924171
207	0xbe0dd762	-0.13851693
208	0x3e7a299e	0.24429938
209	0xbee8eb11	-0.4549184
210	0xbe62744e	-0.22114679
211	0xbdf07321	-0.11740709
212	0x3edc726b	0.43056044
213	0xbe833907	-0.25629446
214	0x3eae1cb3	0.3400627
215	0xbefd3746	-0.49456233
216	0xbe662def	-0.2247846
217	0x3e843404	0.25820935
218	0xbe9f178f	-0.3107266
219	0xbdb13142	-0.08651973
220	0xbf24716d	-0.64235574
221	0x3d53bb8d	0.051692534
222	0xbe066bd0	-0.13127065
223	0xbee60871	-0.44928315
224	0xbe474aa9	-0.19462074
225	0xbd6d7dfe	-0.057981484
226	0x3e708f40	0.23492146
227	0xbeb367d5	-0.35040155
228	0xbd06b578	-0.032887906
229	0x3e29c41d	0.16578718
230	0xbeafbd59	-0.34324148
231	0x3e8588a5	0.26080814
232	0xbe964fff	-0.29357907
233	0x3d9bce34	0.076076895
234	0xbef533e6	-0.47891158
235	0x3e9f8892	0.31158882
236	0xbe947dd5	-0.29002252
237	0x3ed91fd7	0.42407104
238	0xbd6a07b2	-0.057136245
239	0x3dbfedbd	0.09371517
240	0x3e8b6a6b	0.27229628
241	0x3eaab3b0	0.33340216
242	0x3e90d68f	0.28288695
243	0xbe9bd6fa	-0.30437452
244	0x3e8c31dd	0.27381793
245	0x3eaa37d2	0.33245713
246	0xbe747ad7	-0.23874985
247	0xbe71a732	-0.23598936
248	0xbf008bc1	-0.5021325
249	0xbe0ef99b	-0.13962404
250	0x3e1edf35	0.15514834
251	0x3eedefeb	0.46472105
252	0xbe9e820b	-0.3095859
253	0xbe42f121	-0.19037296
254	0x3e8b47e2	0.2720328
255	0x3e973467	0.29532167
